model.tflite (tflite, 69688 bytes, 8 tensors)

arith.constant f4 [29, 32]
00000000: 6ea7 e73e 79b4 d5bd 0be7 393f a6c1 33bf
00000010: 1bef abbe f45b 11bf 312a aabe 7039 183e
00000020: e985 15bd 51a0 273e 8604 aa3c 0666 893e
00000030: d251 01be 663e 72bf cd45 83be c55f 34bf
00000040: 428b 2e3e 3ea6 a3bf a066 8a3e 6edf 36bf
00000050: 9fe0 123f 8030 813e 8b7b 803e ec17 19bf
00000060: 0819 41bf 873f 22bf 30b9 9cbe e7a6 47bf
00000070: 0193 9fbe 7950 8abd bd53 a6be e61a be3e
00000080: af08 4dbf 5716 d33e 9610 ef3e 1987 89be
00000090: 5515 fe3d f50a 9f3d 1905 52bf de73 0a3e
000000a0: 299d ec3d 5867 87bf b2bd c73e e93f 4dbf
000000b0: 5d38 57bf 3075 a33e 2cf7 9bbe 63a5 bf3e
000000c0: b51b b0bf c34a 403d c785 15bf b337 a5be
000000d0: a018 4fbf 9bff d5bf 56a7 e73e 0fc7 14bf
000000e0: 4939 36bf e9bf 1a3e 3937 843d bf6e 12be
000000f0: 7a85 4f3e 5602 b4bf b2d1 8bbf 9244 bdbf
00000100: d689 93bf f103 c83e 351d f73e 437f d4be
00000110: 62db 07bf ab03 1a3e 4f85 a0be a4e1 9e3e
00000120: 4540 2abf 5328 06bf 6e00 2bbf 4d62 1f3c
00000130: f5e5 17bf a53d ba3e 7958 1ebf 04a7 8cbe
00000140: fb0c 45bf d494 75be 7034 39bf 58fe 62bd
00000150: 3d3a d2bd 8747 9cbe f909 f8be dfaf e8be
00000160: 10fa 6a3e a506 133e de2c 613e 30ca 16bf
00000170: 0d90 a63e 9276 d33e e6c4 543e bf33 25bf
00000180: 67a4 4dbf 257f d4be e32c ca3e c91f 37be
00000190: b31b 09bf 2449 ac3e 244a c53e b850 083f
000001a0: 5101 1ebf 7a01 d7be f178 19bf 420a 93be
000001b0: bac9 35bf 40a5 df3e b54c f23e 9afb 3f3e
000001c0: ca82 5fbe a84b e0be 0adf bcbc 33d5 dcbd
000001d0: 316b 623d 7a23 2fbd ff68 d9be 14e2 14be
000001e0: 662a 3bbf 620e d3be 9910 903e 9bba adbe
000001f0: 8c96 583e 08a7 98be 163c 26bf 713d 7cbe
00000200: 195a f13e dcbf a13d fcef c03a 6dd7 5fbf
00000210: dfda efbe fc40 d5bf bab4 1bbf 683c 1abe
00000220: b1f0 43bd d470 0bbf bbc3 2b3d ab92 03bd
00000230: e281 bcbd ce09 18bf 86d1 8cbe e58a 233f
00000240: 0219 29bf 8819 c73d 8908 7fbe ec65 043f
00000250: a1c5 533d fe9d 1a3e 7ea5 b43c 6d97 0dbf
00000260: 814f c9be 4142 c0bd 1b5a e13e 62f9 2c3d
00000270: 0e81 7dbe b5d2 8fbe 97f6 71be fa87 bb3e
00000280: b5cf 0dbf a615 e73c c37d 82be 7994 12bf
00000290: f16a c83e 14d5 e13d 5c3e 5fbf 36e7 d03e
000002a0: 760f d63d 814c efbe 9089 babd 01b6 9cbe
000002b0: 44b4 bb3c e0fe d2bd e62f dbbe 66c7 f9be
000002c0: c029 f3be be4f 5bbf 47fd 4bbf b58e ca3e
000002d0: be36 2cbf 33cc 7fbf a09f ea3e 78cb 173f
000002e0: 9db7 6abf 8c60 8abe ffb3 f53e b119 6dbf
000002f0: d26a 8cbf 1437 883d 02cd 23bf ca61 8d3e
00000300: d8f1 c83e 2eda bcbe 191a 8abe 157e 98bf
00000310: aa99 523e 9613 dcbd 48b9 70be a1a0 10bf
00000320: 8ddf 09bf 517a a03e aadf d5be 158e 6f3e
00000330: 9f26 d83e 06da db3e 2093 bb3e e5a6 97be
00000340: a8d5 07bf d769 93bd 6dc5 73be 79ec 12bf
00000350: 5362 ce3e c532 68bd baac 28bf 6d27 afbe
00000360: fe33 57bf 1a76 543e 9a98 07bf 144d 5b3c
00000370: 9c8f 7bbd b26f 01bf 3916 0b3e 61ce 8dbf
00000380: 880d ad3c 8a4a 2c3f 9c8a 12bf 729c 90bf
00000390: 7245 c43e 1a17 07be cca3 c63d 3932 1dbe
000003a0: 61f0 2cbf 424e df3e 9283 10bf 2d76 453e
000003b0: a528 18bf ae3e 013f 5fcc c83c 1c8f 18bf
000003c0: 867a 27bf 0f71 10bd f67d edbd 7e42 19bf
000003d0: 1fa6 6bbe 6bc8 c4bd ea0a 17bf 3721 06bf
000003e0: c0b9 e5be cd12 cf3e 2842 65bf 3b0d 5d3e
000003f0: 52b8 83be 170c 7dbe 3c68 a03e 5b4b 38bf
0.45244926 -0.10434813 0.7261817 -0.7021736 -0.3358086 -0.56780934 -0.33235314 0.1486566
-0.03650466 0.1636975 0.02075411 0.2683565 -0.12628868 -0.9462646 -0.2563919 -0.7045863
0.1704531 -1.2785108 0.27031422 -0.71434677 0.57373995 0.25232315 0.25094256 -0.59802127
-0.7542882 -0.63378185 -0.30610037 -0.7798905 -0.31166843 -0.0675363 -0.32485762 0.37129897
-0.80091375 0.4122798 0.46692342 -0.26860884 0.124064125 0.07765762 -0.8203903 0.13520762
0.115534134 -1.0578413 0.39011914 -0.80175644 -0.8407038 0.31925344 -0.30462015 0.37430868
-1.3758456 0.0469463 -0.58407253 -0.32269058 -0.8089695 -1.671863 0.45244855 -0.5811624
-0.7118116 0.1511227 0.064558454 -0.14300059 0.20265761 -1.4063213 -1.0923369 -1.4786551
-1.1526439 0.39065507 0.4826447 -0.41503343 -0.53069127 0.15040462 -0.31351706 0.31031525
-0.6650432 -0.5240528 -0.6679753 0.009728027 -0.5933526 0.36375156 -0.6185375 -0.27471173
-0.7697293 -0.23982555 -0.7234564 -0.055418342 -0.10265014 -0.3052332 -0.4844511 -0.4544668
0.22946954 0.14358003 0.21989772 -0.58902264 0.32531777 0.413014 0.20778236 -0.64532083
-0.80328983 -0.41503254 0.3948737 -0.17883219 -0.5355789 0.33649552 0.38533127 0.5324817
-0.6172076 -0.41993314 -0.59950167 -0.28718764 -0.71010935 0.43680763 0.47324148 0.18748322
-0.21827236 -0.4380772 -0.023055572 -0.10782852 0.055278007 -0.042758442 -0.42462918 -0.14539367
-0.7311157 -0.4122191 0.28137663 -0.3393143 0.21151179 -0.29814935 -0.64935434 -0.24632813
0.47139052 0.078979224 0.0014719958 -0.8743809 -0.46846673 -1.6660457 -0.6082264 -0.15062106
-0.047836963 -0.5446904 0.04193471 -0.032122295 -0.09204461 -0.5938996 -0.27503604 0.6388381
-0.66053784 0.097216666 -0.249056 0.5171802 0.051702145 0.15099332 0.02205157 -0.5530918
-0.3931847 -0.09387637 0.44014058 0.042230017 -0.24756262 -0.28090444 -0.23629223 0.3662718
-0.5539506 0.028208565 -0.25486574 -0.572578 0.3914409 0.110269696 -0.8720453 0.408014
0.10452168 -0.46738055 -0.09108269 -0.30607608 0.022913106 -0.1030252 -0.4280998 -0.4878494
-0.4749279 -0.8566855 -0.79683346 0.39562002 -0.6727103 -0.9992096 0.4582491 0.59294844
-0.9168642 -0.27026784 0.4798889 -0.92617327 -1.0970099 0.0665113 -0.6398469 0.2761367
0.39247012 -0.36885208 -0.26973036 -1.1913477 0.2056643 -0.10745923 -0.23508179 -0.564951
-0.53856736 0.3134332 -0.41772205 0.23394044 0.42216966 0.42939776 0.36635685 -0.29619518
-0.5306039 -0.07197922 -0.2380578 -0.5739208 0.4030939 -0.056689043 -0.6588856 -0.34209767
-0.8406371 0.20748177 -0.52967227 0.013385076 -0.061416253 -0.5056106 0.13582696 -1.1078607
0.021124616 0.6730124 -0.5724275 -1.1297743 0.38334233 -0.13192406 0.096992105 -0.1535119
-0.6755429 0.43614393 -0.5645076 0.19283362 -0.5943702 0.50486267 0.024511514 -0.5959337
-0.6542133 -0.03526407 -0.11596291 -0.59867084 -0.23012589 -0.09608539 -0.5900103 -0.5239443
-0.44868279 0.4044403 -0.8955407 0.21587078 -0.25726563 -0.24711643 0.31329525 -0.71989983

arith.constant1 f4 [32, 64]
00000000: af85 42be e5e9 113f dcc7 f63e 02be 7dbe
00000010: 72d8 c8bf f370 a13d bf87 b53e f84c 8a3e
00000020: 825c 743e c610 e2be c488 413e c6bd 453e
00000030: 83b3 27bf eaaa a73d f8d4 233f 9d62 d6bf
00000040: 442c b83e 8e0b a23e 7412 b33e 9ab1 34be
00000050: 2b1e a03e 1eca 823e ee43 a23e 4985 ec3e
00000060: 691c 8bbf 8040 e83d 84ae 2a3e 7df6 05be
00000070: 845b 8fbe e555 48be ff3c 0e3d 982c babf
00000080: faab 273f 59fd 60bc 64d1 39bf 5058 c73d
00000090: 102e 92be f637 043e d7b9 8abe c9e2 b3bf
000000a0: 9b92 f93d d4bb a1be db57 ee3c ebfb 4a3e
000000b0: 84fc 993e 7c40 ecbe a5d1 fd3d e6d0 8a3e
000000c0: 097e 1abd d88d eb3e edea c03e bcef ed3e
000000d0: 8b8e 133f 0a82 f63d 19ef fcbe c725 ff3e
000000e0: 65b1 7fbf 783f 163f 6a6f 933e 0b8d 32bf
000000f0: 7e8a eabf 0bde c33e c346 72be e5de 25bf
00000100: 2005 993e 26d8 883d 3aba d4bc fd11 cdbc
00000110: 603c 98bc 6b7b 56bc e4d7 b5bf a16d 493d
00000120: 07ea f7be 1373 223a a821 49be 8e85 82be
00000130: 0cb4 a5bd f399 a0bf 7ca4 fb3c 883e f6be
00000140: 03a8 503e f6cf b2be b61a 9abd 8357 51bd
00000150: d729 5f3e cac6 71be fdfa d0be d1fb 28be
00000160: 04b1 e7bc ee63 8dbf fd79 a13d e8b9 14be
00000170: 5dc6 8d3e 6e59 18be 543a adbe 104d a2bd
00000180: e146 2c3f 0862 7ebe 76b1 113d c1eb 9b3d
00000190: 13df 8b3e f1f3 27bf 7e6e a1bd 2214 f3be
000001a0: 9724 133f 8d40 d93e 8792 813c dd8d a83e
000001b0: bd13 463c 1a30 bbbd 5018 b63d 07fd 1a3f
000001c0: a3bf eb3d 4616 b4bd f3b8 443e 1742 d6bd
000001d0: 2f7e d03e c6d6 12bf b90a bfbf 28c0 5b3e
000001e0: 08b2 d7bc c6db 75be e563 bdbd c3be 70be
000001f0: 830a 5e3e 2567 3dba fbf2 573e 187b 173d
00000200: 461d 183d 390a 8cbe 8310 6c3d b6d6 9f3e
00000210: 36a7 233d 18a2 2cbe b13c efbc 7f67 95be
00000220: 7c50 8abf bfb0 ecbc 3b44 c53e b8e3 ca3e
00000230: 4e59 6c3e 5248 74bd 2c04 41be e0a2 f23d
00000240: e8ba 673e 2c61 853e 92fa fabe 67e7 9c3d
00000250: 7390 bc3a 8e5b e7be 5c09 533d 360e f2bd
00000260: cc86 c33e 7adb 47be d989 04bc c041 083e
00000270: 9238 88be d26c d13c 26dd c4bf 22f4 92bd
00000280: 4cf3 8abe d817 793e f2ee 8bbd f1fc 88be
00000290: af9e 4e3d 6e4d 6fbe a984 af3d f97b 4a3e
000002a0: d065 283f 24d9 d53e 0639 d1bf 81e0 ef3e
000002b0: 329b 303e 32f7 2d3e 4b0d 033f c17a bc3d
000002c0: a92c 3f3e ce7f 8cbf 4a0d be3d 5267 1f3d
000002d0: 7c1f c43e 09c3 553e 57f0 88bd 7a14 0ac0
000002e0: 1210 d2bc 4c38 77be 373a d0bf b415 ddbd
000002f0: 5875 83bc 6d71 bd3c 0b5f c43e 80c6 cd3e
00000300: c535 fabf b711 7abf 0d7c 1f3e db4c afbe
00000310: e553 c2be 716e 6c3d 219a 303e 7f41 0f3e
00000320: 5f4c 853d 10ef 0ebf 9033 113f d852 f0be
00000330: 7529 da3e 94f8 363d 82ee b8bc 2a1d 163e
00000340: c9ee 543e 8fad f43e 6bb7 eebc eca4 c5be
00000350: fe1d 91bb 93e7 58bf 8712 a23e bde4 1cbe
00000360: e059 6a3f 12ea 60bf 7e79 d7be bedb 793e
00000370: 5e9b f2bf 790e 2d3e 518e 55bf 0ca1 183e
00000380: 603d 6fbd 8a53 2e3f 160d 39bf 7eab 993e
00000390: 20d7 953c 13e3 dc3e 57e9 16bf 2cbd cb3e
000003a0: 68a0 a73d 3199 553e e72d 25bf 3e51 b83e
000003b0: 15af 433e 7959 cc3d 7837 86be 65e4 ab3d
000003c0: e2eb b53e ccbb 203e 9711 233e 1968 9cbf
000003d0: 2701 2ebe 2f12 eb3e a875 5f3e a87d 67bf
000003e0: a16d 13bf 9f29 c9bc 73d2 26bd b152 fe3d
000003f0: 26de f9bc dfa0 863e ec65 903e 8612 133e
-0.18996309 0.5699752 0.48199356 -0.24779513 -1.5691054 0.078828715 0.3545513 0.27011847
0.23863414 -0.44153422 0.18899828 0.19310674 -0.6550829 0.08186896 0.6399684 -1.6748844
0.35971272 0.3164944 0.34975016 -0.17645875 0.31273016 0.25544828 0.3169245 0.46195439
-1.0868045 0.113404274 0.16668135 -0.13082309 -0.27999508 -0.19564016 0.03472614 -1.4544859
0.6549679 -0.013732278 -0.7258513 0.09733641 -0.28550768 0.12911972 -0.2709491 -1.4053584
0.12186166 -0.31588614 0.029094627 0.19822662 0.30075467 -0.46142948 0.12393502 0.27112502
-0.037717853 0.46006656 0.37679234 0.46471965 0.5763938 0.12036522 -0.49401167 0.4983351
-0.9988006 0.58690596 0.2879594 -0.69746464 -1.8323514 0.38255343 -0.23659806 -0.64793235
0.29886723 0.06681852 -0.025967706 -0.025032992 -0.018583477 -0.013090949 -1.420651 0.049176816
-0.48420736 0.0006196957 -0.19641745 -0.2549252 -0.08090982 -1.2546982 0.03071808 -0.48094583
0.20376591 -0.34924287 -0.07524626 -0.05110885 0.21793304 -0.23610988 -0.4081649 -0.1650231
-0.02828265 -1.1046121 0.078845955 -0.14524043 0.27690402 -0.14877865 -0.33833563 -0.07924855
0.6729565 -0.24842083 0.03556963 0.07613326 0.2731863 -0.656066 -0.07882403 -0.47476298
0.57477707 0.4243206 0.01581694 0.32920733 0.012089667 -0.09140034 0.08891356 0.6054234
0.11511161 -0.08793311 0.19211178 -0.104618244 0.4072127 -0.5735897 -1.4925147 0.2146002
-0.02633001 -0.24009618 -0.09247569 -0.2351027 0.21683697 -0.00072251476 0.21088783 0.036982626
0.037137292 -0.2735155 0.057632934 0.312185 0.039954387 -0.16858709 -0.029203745 -0.29180524
-1.0805812 -0.028892873 0.38528618 0.3962686 0.23080942 -0.059639283 -0.18849248 0.11847472
0.22629893 0.260507 -0.49019295 0.07661324 0.0014386311 -0.45187038 0.051522598 -0.11819117
0.3818878 -0.19517317 -0.008089506 0.13306332 -0.2660566 0.025564585 -1.5379989 -0.07175471
-0.27138746 0.24325502 -0.068326846 -0.2675548 0.0504443 -0.23369381 0.08570225 0.19773854
0.65780354 0.41767228 -1.6345527 0.4685097 0.17246702 0.16988829 0.5119216 0.09203101
0.1866938 -1.0976503 0.092798784 0.038916893 0.3830527 0.20875181 -0.06686466 -2.1574998
-0.025642429 -0.2414257 -1.6267766 -0.10795155 -0.016047165 0.023125375 0.38353762 0.40190506
-1.9547659 -0.9768328 0.15574665 -0.34238324 -0.3795463 0.057722513 0.17246296 0.13989829
0.06508707 -0.5583353 0.56719303 -0.46938205 0.42609754 0.044670656 -0.022574667 0.14659563
0.20794214 0.47788665 -0.029140195 -0.38602388 -0.004428624 -0.84728354 0.3165476 -0.15321632
0.9154339 -0.8785716 -0.4208488 0.24400231 -1.8953664 0.16900052 -0.8342028 0.14905185
-0.05840814 0.6809622 -0.7228559 0.3001365 0.018291056 0.43141994 -0.589498 0.39792764
0.08184892 0.20859219 -0.64523166 0.35999483 0.19109757 0.09978003 -0.26214194 0.08393172
0.35531527 0.15696639 0.15924679 -1.2219268 -0.16992627 0.4591231 0.21822226 -0.9042611
-0.57589155 -0.02455598 -0.040728044 0.12418116 -0.030501436 0.2629461 0.2820276 0.14362535

arith.constant2 f4 [64, 128]
00000000: 5a3e fdbc bf84 e4bd a409 0cbf 7284 3fbd
00000010: f5d8 533f d285 edbd dc3e 8bbe 65d3 293d
00000020: c3f2 b33d 6fe5 233d 02e4 f03e ae3e 2abf
00000030: 91fc 7abf 3549 133e 0024 50be 6ced 863e
00000040: 6dca 88bb 0be0 a33d 1312 99bf 8ad3 72bd
00000050: bbce 413e edbf 7fbd c0c7 463e 4442 75bd
00000060: 96b0 263f 7a8d d63d 17d4 9c3e 2dcc 193d
00000070: 9840 14bc 4e19 43bf 93c6 373e ec2c d5bc
00000080: a1b8 473d 556b 10be accc 06bd 8b13 56bf
00000090: 5d06 ed3c a0b1 213e d4a4 fb3c 7dd0 733d
000000a0: 56a1 223f 3ce2 48be 78ea 0fbe 2ede 113d
000000b0: 8458 1cbf 177b a93e b675 123f 78df 253e
000000c0: 0dad 8e3d 82f5 a0bf 1be7 f3bd 26cb c0bf
000000d0: b23e dabd ab9e 363d 83c9 193e 91ac 68bf
000000e0: d13c b53d c773 83be 0c7e 6e3b 5895 dc3b
000000f0: 7f02 ab3d ecd0 e8be 75d0 823d 9ac3 223d
00000100: f5f3 323e 4ece b6be ef37 1abf 4007 313e
00000110: a356 fa3c 4b4e 913e 77d3 5bbe ab86 443f
00000120: 0118 95be 75af 963e 8aa1 3c3e 66c5 1d3f
00000130: 5709 c53d 81ec 253e 8d13 033e f49c 223d
00000140: 168a 8a3e f02a 99be b003 88bd 2d88 3abf
00000150: 26f8 3abe 0c68 093f a665 90bd 5e75 3dbf
00000160: cd5d bdbd 85d6 233d 8747 82be 2d47 9bbd
00000170: 8237 bf3e aaf0 e33b 0b45 34be 9fce e23d
00000180: 6c22 62bf bc3f 17be 325d 913e d20d 7dbe
00000190: 59eb 493e bce4 163d 49d4 b03e 6a38 1cbf
000001a0: 7053 d13d 7ce4 0e3e bd4a 963f 0319 843e
000001b0: fbac 813e 2714 b53c 111c b63c c1dd 40bd
000001c0: 1bf0 e83e a33c 3ebe ede3 983e 1d09 60bd
000001d0: bb06 493e ffec 0b3a 4c13 063e 539d f13d
000001e0: 3d43 a33d cf8d 88bd 9851 89bd 372f b6be
000001f0: 6be3 1bbe f635 edbd baab b7bd 369a 58be
00000200: f05a 4eb9 73f9 75be 4c26 003c 20fa 07c0
00000210: b498 523c 0929 aabc 754c 68bd ac13 85bf
00000220: a733 7d3d 07dc ac3d 8624 fcbe cc71 4c3e
00000230: e01f 07bc 506b 04bf acf7 a5be 6437 76be
00000240: ed33 33bd f2a5 cb3d 65ca 8abe b298 c93d
00000250: 723c 603f 1682 ecbf 744f e93d 0f0b 43bf
00000260: dedb eebb 8904 3f3e 941d 27bf 29a9 223e
00000270: ed6f abbe fe63 aabb 857f 943d 30f6 20bf
00000280: 94d3 02bf 2297 cd3d cee7 febc c212 9dbc
00000290: 3b31 c93d 4bfc 673e 3487 bcbc 56be 95bd
000002a0: 95d3 74be fe28 ec3b 1040 793f 40f5 263e
000002b0: 5bd9 09be 731a 733e 13be d73d 8c86 2a3d
000002c0: 1c0c 703e 3b66 25bf e800 c2bd 8aba 7fbe
000002d0: 6174 10c0 3c7e 2a3e 1b5d 6bbd 9239 90bc
000002e0: b012 01be 73ed 01bd bfae a23d 408f bcbe
000002f0: 8fbb c4bc 7587 04be 32c3 5f3e e2af cdbc
00000300: 2aeb 52bf d025 19bf 448a afbe a83c 02be
00000310: 4352 d23d 2588 43bd 511a 3d3e d997 dc3d
00000320: 7a61 c73c c473 d63d 07cc 9f3e 46af 1e3e
00000330: 4d35 173d 9ea8 06be 0b0d 433e e583 3c3f
00000340: ae39 c53e 59a3 313c c251 013f c8c3 973d
00000350: 6171 4a3e 1e01 1b3f b51a 19c0 0481 debe
00000360: 2721 2e3e 6aac 47bf b03d 8dbd 756f 293e
00000370: a2f1 99be bafc c53d 7eb7 2abe 6e53 5c3e
00000380: fc46 89be c849 c93b 0432 193e 6036 98bf
00000390: 1b71 b8bc 2e96 883d 62a2 893e 2f6e 75bd
000003a0: 6e58 b03d f4eb aabf 858b 353f 2403 443d
000003b0: 6862 96be e7ad cfbe 79f2 643e 9950 ab3f
000003c0: 3449 513e f760 c1bc 8d1a 96bf 05df 83be
000003d0: db6a 223e aef4 a13c 8f9f a7bf 05c4 2c3f
000003e0: 2cf1 f0ba 33b4 6f3d 875e 113e 7d83 213d
000003f0: 6cbe 243e 4022 843e 0218 603e 4338 31bf
-0.03091352 -0.11158132 -0.5470221 -0.04675717 0.82752925 -0.1159779 -0.27196395 0.041461367
0.087865375 0.040013727 0.47048956 -0.6650189 -0.98041636 0.14383395 -0.20326233 0.26353014
-0.0041745217 0.08001717 -1.1958641 -0.05928377 0.18926518 -0.062438894 0.19412136 -0.05987765
0.651132 0.10476203 0.30630562 0.037548233 -0.0090486035 -0.76210487 0.17946844 -0.026022397
0.04876006 -0.14103444 -0.032910034 -0.8362357 0.028933698 0.15790415 0.030718245 0.059525
0.6352743 -0.19617552 -0.14054286 0.035612278 -0.61072564 0.33101723 0.5721086 0.16198528
0.069666006 -1.2574923 -0.11909314 -1.5061996 -0.106564894 0.04458491 0.15018277 -0.90888315
0.088494904 -0.2567427 0.0036391048 0.0067316703 0.083500855 -0.45471895 0.06387416 0.03973732
0.17475875 -0.35704273 -0.602416 0.17287922 0.03055889 0.28380045 -0.21467386 0.76767987
-0.29119876 0.29430738 0.18420997 0.6162933 0.09620922 0.162035 0.12800427 0.039700463
0.27058476 -0.2991557 -0.06641328 -0.7286404 -0.18258724 0.5367439 -0.07050638 -0.74007213
-0.09246407 0.039999504 -0.25445196 -0.07581935 0.37347037 0.0069561796 -0.17604463 0.11074566
-0.88333774 -0.14770406 0.28391415 -0.24712303 0.19718684 0.03683923 0.3453696 -0.6102358
0.102209926 0.13954347 1.1741558 0.25800332 0.25327286 0.022104336 0.02223018 -0.04708648
0.45495686 -0.18577819 0.29861394 -0.05469619 0.19631474 0.00053377444 0.13093299 0.11797585
0.07971809 -0.06667673 -0.06705016 -0.35582897 -0.15223472 -0.11582558 -0.08968301 -0.21152577
-0.00019679568 -0.24020939 0.007821631 -2.1246414 0.01285379 -0.02077152 -0.05671354 -1.0396628
0.061816838 0.084404044 -0.49246615 0.19965285 -0.008247346 -0.51726246 -0.3241552 -0.24044567
-0.043750692 0.09943761 -0.2710754 0.098435774 0.8759223 -1.8477199 0.113921076 -0.7618875
-0.007289394 0.18654074 -0.6527951 0.15884842 -0.3348383 -0.0051999083 0.07250885 -0.6287565
-0.5110409 0.10038592 -0.031116392 -0.019173983 0.09823843 0.22654836 -0.023013689 -0.07311694
-0.23908837 0.007207035 0.97363377 0.16304493 -0.13461821 0.23740558 0.10534301 0.04163222
0.2344212 -0.64609116 -0.09472829 -0.24973503 -2.2571032 0.16649717 -0.05746184 -0.017605577
-0.12604785 -0.03172059 0.079434864 -0.3682804 -0.024015216 -0.12942298 0.21851805 -0.025108282
-0.8239008 -0.5982332 -0.34285176 -0.12718451 0.102695964 -0.04773726 0.1846707 0.1077115
0.024338473 0.10471299 0.31210348 0.15496549 0.036916066 -0.1315026 0.19047944 0.73638755
0.3852057 0.010842168 0.5051538 0.07410389 0.19769813 0.6054858 -2.392255 -0.43457806
0.17004834 -0.7799746 -0.068965316 0.16546424 -0.30067164 0.096673444 -0.16671559 0.21516201
-0.2681197 0.0061428286 0.14960486 -1.1891594 -0.02251487 0.066692695 0.268817 -0.059919532
0.086106166 -1.3353257 0.70916015 0.047854558 -0.29371953 -0.40562364 0.22358121 1.3383971
0.20438081 -0.023605807 -1.1726853 -0.25756088 0.15861075 0.019769993 -1.3095568 0.674866
-0.0018382422 0.05852146 0.14196216 0.039432038 0.16088265 0.2580738 0.21884158 -0.69226474

arith.constant3 f4 [29]
00000000: 1e2b 413f 0472 953e 501a 46be ad86 d2be
00000010: 700a 0cbe 88e9 04be e923 08bf 7ce4 5dbe
00000020: 5569 3e3e 114b 333d abe9 5d3f 43ea 80be
00000030: d322 debd b5ca 21bf 82ec 173f 1fe6 dd3e
00000040: 59cd 663d b33e d53c ab6a 27be b6c2 b6bd
00000050: 7282 af3c bab6 fbbc 6b52 9fbe b520 f33d
00000060: df3a b7bf 27ce 94be 7938 373f 3009 883e
00000070: 4c39 69be
0.75456417 0.2918855 -0.19345975 -0.41118374 -0.13675857 -0.1297971 -0.53179795 -0.21669191
0.18594868 0.04377276 0.86684674 -0.25178728 -0.10846486 -0.6319993 0.5934526 0.4333963
0.05634818 0.026030874 -0.16349284 -0.08923857 0.021424506 -0.03072678 -0.31117567 0.11871473
-1.4314841 -0.29063532 0.71570545 0.2656951 -0.22775763

arith.constant4 f4 [32]
00000000: 348e 373e 13c8 8f3f 6e30 2f3f 4045 2e3f
00000010: 9635 873e 09ee 103c 139c 9c3e 6521 f83e
00000020: 34d8 4a3f 9aa0 603f 4d90 cd3e dc77 0cbf
00000030: bef6 8ebe f60d 493f 3780 70be b743 1c3f
00000040: 98ca 323f 5dc9 973d 3ec8 253f a33f 393f
00000050: 45bb df3e 682b 883f c3a6 be3e dff4 263f
00000060: 982b d03e 075a 8c3e 7232 223f 7cc1 473e
00000070: d042 953e 0353 153f af8c 8fbe b9a9 28be
0.1792534 1.1232933 0.6843327 0.6807442 0.2640807 0.0088458145 0.30587825 0.48462978
0.7923615 0.8774506 0.40149155 -0.5487039 -0.27922624 0.7853693 -0.2348641 0.61040825
0.69840384 0.07411454 0.6475867 0.72362727 0.43697563 1.0638247 0.37236604 0.65217394
0.4065826 0.27412435 0.63358223 0.19507402 0.29152536 0.5832979 -0.2803702 -0.16470994

arith.constant5 f4 [64]
00000000: f7ba 133d 9ccf 493e 586f 383d 8b4d 64be
00000010: a132 87be 4846 84be 7a74 933e ca8b f23d
00000020: 527a 0e3e fb94 203e b40f 023f ba8d 743e
00000030: 6883 9f3e 960f 593e 490b aebd 3524 27bd
00000040: 46be 693e c476 123f f223 ba3e 0ba7 2bbe
00000050: b47c 8a3e b2c6 983d 8737 b53e 8345 d43d
00000060: 017c d6be 0a53 c7be d227 87be 9d61 b1bc
00000070: 37c9 23be fe96 df3e 4705 8ebe 3f5e 3d3d
00000080: 8cd0 833e fd09 f53e 52c0 11bf bcd6 33bf
00000090: 5cfd cf3e 95f4 e2bc 74a3 3abe aaa4 db3d
000000a0: edfe 0a3f a713 7f3c 65a3 b13d 99c8 e13e
000000b0: 767b a43e 25f4 1a3e 4da8 823e 3a4d f53e
000000c0: 06a8 c93e 4465 02be 3687 b93e eaed c63e
000000d0: 1096 853e f2d6 193f 6264 c5bc ad25 bebe
000000e0: cfa7 1abf 585a 723e 465d 86be 27d4 27be
000000f0: 0b1c 443e fc6d ad3e 19fd 383e 489e 7bbc
0.036066975 0.19708103 0.04502806 -0.22295205 -0.26405814 -0.2583487 0.28799802 0.11843069
0.13913849 0.15681832 0.5080521 0.2388219 0.31154943 0.21197352 -0.08498246 -0.040806014
0.2282649 0.5721247 0.3635555 -0.1676294 0.27048266 0.07459773 0.35393927 0.10364821
-0.41891482 -0.3893054 -0.26397568 -0.021652991 -0.15994726 0.43669885 -0.277384 0.04623246
0.25745046 0.47859183 -0.5693408 -0.70249534 0.40622985 -0.027704516 -0.18226415 0.107247666
0.54295236 0.01556865 0.08673743 0.44098356 0.32125443 0.15132196 0.25519028 0.47910482
0.39386004 -0.12733942 0.3623597 0.3885339 0.2609105 0.60093606 -0.024095718 -0.3713812
-0.60412306 0.23667276 -0.26243037 -0.16389523 0.19151323 0.33872974 0.18065299 -0.015357561

sequential_3_1/dense_11_1/BiasAdd/ReadVariableOp f4 [128]
00000000: 7a14 0ebf 7604 8dbd 8024 adbe 4656 87be
00000010: 6706 08bf 8097 94be 214b 8abc 66e5 923e
00000020: 1d4b 3bbe 0377 a03d 0e97 21bf 0785 57be
00000030: 133d c3bd e31d 68be 555a b73d 073d a1be
00000040: 6a97 c5be 9e7f 18bf 9915 eebd dcb8 c1be
00000050: 18b0 f6be ca30 99bc 01a0 05bf c141 b63d
00000060: cad1 c9be d7d0 43be 9115 3fbf 8ed8 abbe
00000070: 6f27 a2be f60f 75be 04d4 d2be 345d d5be
00000080: 5ced 11be 895b d0be 11bb ebbe bfd6 10bf
00000090: 7012 12bf 1840 4bbe 8f46 d4be 32fb d5be
000000a0: a4f7 0abf ab20 30bd 69cb 1a3e c0dd edbd
000000b0: 889a f4be cf87 92be 7c09 62bf 97b5 d0be
000000c0: 6901 a3be decc 5abe 13cc b6be 6f9e 94be
000000d0: ae70 55be 3fc8 c0be c4d1 d4be 82c2 2a3e
000000e0: 7c98 8abe 89d8 eabe 06fb 5e3d b445 04bf
000000f0: 9ca2 4abc 9883 cfbe 7271 c7be 75f3 b0be
00000100: 192e 33be eb68 a7be 5173 41bf 9776 dcbe
00000110: 06d9 04bf ab4d 79bd 84e2 bfbe 58c6 d1bd
00000120: e438 7fbe 9024 92be 138d 59bd 0f87 11bf
00000130: b01e c3be 9210 47be 94cc 04bf 3494 b4be
00000140: 8493 99be c0ee aabd c05e e53d ca1b 20be
00000150: 3084 91be 9d88 92be 92ba 00be be24 8abe
00000160: b105 efbe e6d7 b13d 7807 203d a020 11bf
00000170: ff32 80bd fd00 773e 33e5 c6be 6cc1 79be
00000180: 1797 03be 58bf 0dbe 9127 2abf 8c3f 8bbe
00000190: 9f74 05be aecd 19bf f587 12bf 7fdc de3d
000001a0: 2a94 97be 3f4e 34be 0e63 c4be 518b f5bd
000001b0: ddf7 aebe ff17 b1bd 0c33 6bbe 7d13 d2be
000001c0: 66d5 dfbe 3bfa d6be 2af3 49be a261 e0bd
000001d0: 9d3d 813d df97 a2be 7647 86bd d205 10bf
000001e0: 178a 07bf 0a89 1fbf 8ae5 25be ddfe 11bf
000001f0: 19b4 5ebe 527f 54be 91e6 16be 9a94 bebe
-0.55499995 -0.068856165 -0.3381691 -0.2643301 -0.5313477 -0.29021835 -0.016881527 0.28690642
-0.18290372 0.078352 -0.63121116 -0.2104684 -0.09533133 -0.22667651 0.08952776 -0.31491873
-0.38592082 -0.5956973 -0.11625213 -0.3783635 -0.48181224 -0.018700022 -0.5219727 0.0889926
-0.3941787 -0.19122635 -0.7464228 -0.33563656 -0.3167071 -0.2393187 -0.4117738 -0.4167267
-0.14250702 -0.40694836 -0.46041158 -0.56577677 -0.57059383 -0.19848669 -0.41460082 -0.4179321
-0.5428412 -0.042999905 0.15116657 -0.11614561 -0.47774148 -0.2861924 -0.8829572 -0.40763542
-0.31837013 -0.21367213 -0.3570257 -0.29027125 -0.20843765 -0.37652776 -0.41566288 0.16675761
-0.2706946 -0.45868328 0.054438613 -0.5166886 -0.012367871 -0.40530086 -0.3895374 -0.34560743
-0.17498054 -0.32697234 -0.75566584 -0.43059227 -0.5189365 -0.060865086 -0.37477505 -0.10242909
-0.24924046 -0.2854352 -0.053113054 -0.5684671 -0.3810935 -0.19439915 -0.5187466 -0.3526932
-0.29995358 -0.08346319 0.11199713 -0.156356 -0.28421164 -0.28619853 -0.12571171 -0.26981157
-0.4668403 0.086837575 0.039069623 -0.56690407 -0.06259727 0.24121471 -0.3884674 -0.24390191
-0.12850605 -0.13842523 -0.66466624 -0.2719692 -0.13032769 -0.6007947 -0.57238704 0.108819
-0.29605228 -0.17607974 -0.38356823 -0.11989463 -0.3417348 -0.08647155 -0.22968692 -0.41030493
-0.43717498 -0.41987786 -0.19721666 -0.10956122 0.0631058 -0.31756493 -0.06556599 -0.5625888
-0.52945083 -0.6231848 -0.16200843 -0.57029516 -0.2174839 -0.20751694 -0.14736392 -0.3722275

sequential_3_1/dense_11_1/MatMul f4 [128, 42]
00000000: 869a 2ebe 3cbf 823d 2fe9 e83e 8309 40be
00000010: 43db 1f3c 4e1e 2fbe 08c4 03bf 47bc 823e
00000020: a046 9dbf 36b0 9d3e 18d9 e03d 90c0 3b3d
00000030: e5d0 7a3e af67 dbbd f7ae 1a3e cdb1 f8bb
00000040: 5ef1 6a3e bf00 b13d 7705 3b3c e1e2 a53e
00000050: faf4 1b3e 1ace 813d 94a3 e23d b7bf 5abe
00000060: a446 943e c5f4 953e e3f3 c2bd 1ad2 943d
00000070: 1e21 1a3e f3d2 c9bd 9f97 a43d 9488 f7be
00000080: fa73 a23e a4b0 6cbe 5084 c6bd 6393 cd3e
00000090: 8c17 8bbe 8e0e 94bc 4dfb 0b3e 8151 a2be
000000a0: 6c2e e43e 0e99 bbbe 08cc e73c 05d1 17be
000000b0: 8df9 cd3e d284 873c d44a 293e 236f 86be
000000c0: c721 a43d a4de d4bd d211 9abe ae23 b23d
000000d0: 849f 8e3e c63f 0d3f 5dc4 1cbf a068 193d
000000e0: e00d 60bf 35a8 113e a87a babf 8c26 cebd
000000f0: ae54 123f 7d8c 123f 7364 053f 507f d13d
00000100: 3fb4 243f 6c71 e7be 9ff4 153f abf0 eabe
00000110: 372a 093f 5afe 533e fc83 b8bd 3fd7 c4bd
00000120: 69f4 babe 394b 0c3e a23b 95be 6faf e73d
00000130: c942 6f3e 166d cd3e 8fd1 9c3e c63a c83d
00000140: f9f2 753e 2be3 683d 72d2 263f 215b 3a3b
00000150: 989e 183e 5054 f8bc 6f35 593e 26b7 d9be
00000160: 2fe6 9d3e dd67 efbe 63af 4c3d 801c 87be
00000170: 7b73 1cbf eb2b 3f3d ff5f e93c a9d9 29bc
00000180: 72a0 b6bd 81ee 443e 886d 00bf 97fb 2b3e
00000190: 3b9c 18bf 4979 813d 4c35 473e 868e e1bc
000001a0: 9e46 d4be 1374 663e 9650 88be 9673 033e
000001b0: b238 d33d df51 c53d 21b5 29be 19da 18bd
000001c0: 3003 cfbe 9eb8 c23e baff d23d f026 43bd
000001d0: c9fd 2b3f 78d8 afbe 64a6 a8be 5e8a 13be
000001e0: 142d b6be 066c a33d 667b 15bd f617 1c3d
000001f0: 0e8b 8a3c 23f2 a0be 2612 80bd 7a8e 31be
00000200: 9ee4 0b3e 1416 e8be cdb5 32be ff62 56be
00000210: d4c9 c2be 05c9 5f3e c377 a0bd fca3 043f
00000220: 83ec 52be b61b 3a3e e3ed 073f c81d 303e
00000230: fe3e 7b3f 9d7d c9bd 1b3a b23f 1143 64be
00000240: 98e5 d9be 461a 5c3d 9341 d1be e337 cf3c
00000250: ad47 31bf d8c8 56be 483b 33bf 40cd a4be
00000260: 8b1d 67be f182 73bd e3d8 85be b0e2 b93e
00000270: 0138 06be 4c8b 023e 9af8 a43e a623 b13d
00000280: ac38 2f3e fb88 55be 150a 6a3c 867b ffbd
00000290: bf3a 243e eee6 a93d 9b59 823e 2355 87bd
000002a0: 995a 00be 30e1 58bc 3ae8 e43e a208 28bf
000002b0: 36da 173f fe95 633e a51c 0e3f ee7f 96be
000002c0: 6587 1ebe 9d45 36bf 661e 8ebe 84bf 573e
000002d0: 0b6c d8be e580 2bbe 4f80 a53d 1f24 8c3e
000002e0: bbc8 0a3e a60f 433e 3091 c03d 3301 ef3e
000002f0: 7504 87be 454e 43be 9901 72be a5a5 49be
00000300: 0346 b0be 2876 72be e3ef d73d b6fd 003e
00000310: ec91 9fbe b3e1 b1be 053a d33e b919 6a3e
00000320: 7975 123f 89fa f13d 7038 66be b9c7 d3bd
00000330: 2536 bcbe b200 4fbe 3111 4a3e 0645 193e
00000340: b01c c63e c8a5 1e3f 742e 243e 14d9 403d
00000350: 0040 0b3e 40dc 3ebf dc84 12be 75ae e2be
00000360: 1f9e 3fbf c8ef 143d 0cb3 cabe 644a d63e
00000370: f377 1f3e 965e 2cbf 19d0 b23d b54c 5bbd
00000380: 720d f7bd b712 bb3e b9d8 6dbe 5d37 303f
00000390: 6bbd cb3d 6361 c3be a066 af3e a7eb b23c
000003a0: 5f8e 143f 8391 08be ca88 0b3f 3723 1c3f
000003b0: db87 96be a92f 8abe 9b45 b53d 7ea9 5a3c
000003c0: 5126 b63e 39b9 bbbe aec5 103f 39ab dbbd
000003d0: 83d9 b3be 7c99 21be d4d5 91bd f811 1a3e
000003e0: 1db8 c9bd c9da 033e 8686 a0be b582 f23e
000003f0: afdf fcbd 422b 3bbe 3d05 53be 49d8 60bf
-0.17051134 0.06384131 0.45490405 -0.18753628 0.009756866 -0.17101404 -0.51470995 0.2553427
-1.2287178 0.307985 0.10978907 0.04583794 0.2449375 -0.107131355 0.15105806 -0.007589555
0.22943637 0.086427204 0.011414877 0.32399657 0.1523017 0.06338139 0.11066356 -0.21362196
0.28960145 0.29288307 -0.09519174 0.07266636 0.15051696 -0.098546885 0.08036732 -0.48346388
0.31729108 -0.23114258 -0.09693205 0.4015151 -0.27166402 -0.018073346 0.13670082 -0.31702808
0.44566667 -0.3664021 0.028295532 -0.14825828 0.40229455 0.016542826 0.16532451 -0.26256666
0.08014255 -0.10394028 -0.3009172 0.086982116 0.27856076 0.55175436 -0.61237127 0.037453294
-0.8752117 0.14224322 -1.4568682 -0.10065946 0.5716046 0.5724562 0.521064 0.10229361
0.64337534 -0.45203722 0.5857639 -0.4588674 0.5358004 0.20702496 -0.09009549 -0.096113674
-0.36514595 0.1370057 -0.2914706 0.11312758 0.2336532 0.40122288 0.3062863 0.09776835
0.24018468 0.05685727 0.65164864 0.0028435665 0.14904249 -0.03031364 0.2121179 -0.42522544
0.3083968 -0.4675893 0.04997195 -0.2638893 -0.6111371 0.046672743 0.028488157 -0.010366836
-0.08917321 0.19231607 -0.5016713 0.16795193 -0.5961339 0.063219614 0.19453925 -0.02753378
-0.41460127 0.22505216 -0.26623982 0.12837061 0.10313548 0.09634756 -0.16573001 -0.03731737
-0.4043212 0.38031477 0.10302682 -0.047644556 0.6718412 -0.3434484 -0.32939446 -0.14408252
-0.35581267 0.07979588 -0.036494635 0.03810879 0.01691201 -0.31434736 -0.062534615 -0.17339507
0.1366143 -0.45329344 -0.17452164 -0.20936202 -0.38044608 0.21854027 -0.07835343 0.5181272
-0.20598035 0.18174633 0.5309736 0.1719886 0.98142993 -0.09838412 1.3923982 -0.22291209
-0.4255798 0.053735994 -0.40870342 0.025295204 -0.69249994 -0.20975053 -0.7001233 -0.32187843
-0.22569863 -0.059451047 -0.26142034 0.3630576 -0.13107301 0.1274845 0.32220918 0.086493775
0.17111462 -0.20853035 0.01428463 -0.12474732 0.16038035 0.082959995 0.2545899 -0.066080354
-0.1253456 -0.013237283 0.44708425 -0.6563817 0.5931734 0.22225186 0.5551246 -0.29394478
-0.15481336 -0.7119997 -0.27757567 0.21069151 -0.4226993 -0.16748388 0.080811135 0.27371308
0.13553135 0.19048938 0.09402692 0.46680602 -0.26370588 -0.19072826 -0.23633422 -0.19692095
-0.34428415 -0.23677886 0.10543802 0.12596783 -0.31166017 -0.34742507 0.41255203 0.22861375
0.572105 0.11815364 -0.22482467 -0.103408284 -0.3676006 -0.20215109 0.1973312 0.14967737
0.38693762 0.6197171 0.16033345 0.04708202 0.13598633 -0.74554825 -0.14308494 -0.44273725
-0.7485065 0.036361486 -0.39589727 0.4185363 0.15573101 -0.67331827 0.08731098 -0.05353995
-0.12063111 0.36537716 -0.23227204 0.6883448 0.09948238 -0.38160238 0.34257984 0.021840883
0.5802974 -0.13336758 0.545056 0.60991234 -0.29400524 -0.26989487 0.08851167 0.013346074
0.35576108 -0.3666475 0.56551635 -0.107260175 -0.35126886 -0.15781206 -0.071208626 0.15045917
-0.0984957 0.12876429 -0.31352633 0.47365347 -0.12347352 -0.1827822 -0.20607467 -0.87830025
